joint-learner/sim/models/cache_repl_w5_d12_pb100m_2.pth_traced.pt (torch, 11123 bytes, 3 tensors)

weight f4 [12, 6]
00000000: 761b 8a3c 3181 903e 9bab 33be 5ce5 94be
00000010: da64 c43e 6b86 d7bc 75ad 353e 6f9b b4bb
00000020: 9d4e afbe 5ff8 83be 5c91 a8be e5e7 07bf
00000030: 9b61 733e 914d efbe 6b1e 8f3e 48ac 01bf
00000040: f650 bfbe ee1a 99be 517f fb3d 2253 8a3d
00000050: 2617 89bd 43d5 a23e 2ca7 c03e f465 b1be
00000060: 250f 713e 7a14 363e b695 8b3e 238c 743e
00000070: ef48 b73e 8e86 9bbe c256 3f3e 7d21 733e
00000080: cb7a 5f3d 7341 ed3e 1177 d4bd 3056 62bd
00000090: 9ddb 113e ff23 e6bc f52f 0fbd 268e a0be
000000a0: 1bda 01bf 80c1 babe 6a90 14bb 1377 14bd
000000b0: 6624 1ebe 37fd 8abe e2eb 21be 293f 80be
000000c0: 386c 8f3d fefc 62be 4171 d03d 0dc9 a7bd
000000d0: 84b1 53be 1e8f 06bf 8ce5 643e 9cf0 f9bd
000000e0: b42f f63d ed8d acbd 4feb 56bd 323b fa3e
000000f0: 8da6 8abe 1b8d 99be b576 3dbe 8532 eabe
00000100: ef3d 8fbe a0f0 05bf b8f6 41be 0c35 e4bc
00000110: 2fa6 6d3c 9f13 05be cd20 043d 21ce 48be
0.016858798 0.28223565 -0.17545931 -0.29081237 0.38358194 -0.026309213 0.1774195 -0.005511693
-0.34239665 -0.2577543 -0.329234 -0.5308822 0.23767702 -0.46738866 0.27952895 -0.50653505
-0.37366456 -0.29903358 0.12280143 0.067541376 -0.06693868 0.3180333 0.37627542 -0.34648097
0.23540933 0.17781249 0.27262658 0.23881583 0.3579783 -0.30376095 0.18685439 0.23743244
0.054560464 0.46338996 -0.103742726 -0.055257976 0.14243932 -0.028093336 -0.034957845 -0.3135845
-0.5072343 -0.36475754 -0.0022669085 -0.03624637 -0.15443572 -0.27146313 -0.15812638 -0.25048187
0.07003063 -0.22166821 0.101778515 -0.08192644 -0.20673186 -0.5256213 0.2235319 -0.12204096
0.120208174 -0.08425508 -0.0524705 0.48873287 -0.27080193 -0.29990467 -0.18502314 -0.45741668
-0.2797694 -0.5232029 -0.18941772 -0.027857326 0.014504953 -0.12995766 0.032257844 -0.19609882

bias f4 [12]
00000000: 66d8 9cbe 57b9 3f3d f06d db3e 5dc9 2f3f
00000010: 940b b43e 5867 e0be 2045 c83e 4d82 cb3e
00000020: 5e5d 1a3f fe84 f13d 3cb2 4dbe ad55 c2be
-0.3063385 0.046807613 0.42857313 0.6866663 0.35165083 -0.43828845 0.39115238 0.3974785
0.6029872 0.11792944 -0.20087522 -0.3795599

weight f4 [1, 12]
00000000: ae52 923e 4885 d83e cab5 a93e 8a59 a53e
00000010: 51db 4f3e 5b7a 3a3e 094f d43e 8301 bf3e
00000020: 1013 d43e aff8 ea3d 543a 953e 4cea 173e
0.28578705 0.42289186 0.33146507 0.32294875 0.20298506 0.18210737 0.4146655 0.3730584
0.41420794 0.11473214 0.29146063 0.14835471
